…
20,"elapsed":1871,"user":{"displayName":"Minh Tùng Bùi","userId":"01387601808454958732"}}},"execution_count":13,"outputs":[]},{"cell_type":"code","source":["vgg_model.to(device)"],"metadata":{"colab":{"base_uri":"https://localhost:8080/"},"id":"dpWMA6vJ7BR0","executionInfo":{"status":"ok","timestamp":1736407098585,"user_tz":-420,"elapsed":701,"user":{"displayName":"Minh Tùng Bùi","userId":"01387601808454958732"}},"outputId":"ed0e5177-5b60-4154-eaad-2fbae897bf7c"},"execution_count":16,"outputs":[{"output_type":"execute_result","data":{"text/plain":["VGG(\n","  (features): Sequential(\n","    (0): Conv2d(3, 64, kernel_size=(3, 3), stride=(1, 1), padding=(1, 1))\n","    (1): ReLU(inplace=True)\n","    (2): Conv2d(64, 64, kernel_size=(3, 3), stride=(1, 1), padding=(1, 1))\n","    (3): ReLU(inplace=True)\n","    (4): MaxPool2d(kernel_size=2, stride=2, padding=0, dilation=1, ceil_mode=False)\n","    (5): Conv2d(64, 128, kernel_size=(3, 3), stride=(1, 1), padding=(1, 1))\n","    (6): ReLU(inplace=True)\n","    (7): Conv2d(128, 128, kernel_size=(3, 3), stride=(1, 1), padding=(1, 1))\n","    (8): ReLU(inplace=True)\n","    (9): MaxPool2d(kernel_size=2, stride=2, padding=0, dilation=1, ceil_mode=False)\n","    (10): Conv2d(128, 256, kernel_size=(3, 3), stride=(1, 1), padding=(1, 1))\n","    (11): ReLU(inplace=True)\n","    (12): Conv2d(256, 256, kernel_size=(3, 3), stride=(1, 1), padding=(1, 1))\n","    (13): ReLU(inplace=True)\n","    (14): Conv2d(256, 256, kernel_size=(3, 3), stride=(1, 1), padding=(1, 1))\n","    (15): ReLU(inplace=True)\n","    (16): MaxPool2d(kernel_size=2, stride=2, padding=0, dilation=1, ceil_mode=False)\n","    (17): Conv2d(256, 512, kernel_size=(3, 3), stride=(1, 1), padding=(1, 1))\n","    (18): ReLU(inplace=True)\n","    (19): Conv2d(512, 512, kernel_size=(3, 3), stride=(1, 1), padding=(1, 1))\n","    (20): ReLU(inplace=True)\n","    (21): Conv2d(512, 512, kernel_size=(3, 3), stride=(1, 1), padding=(1, 1))\n","    (22): ReLU(inplace=True)\n","    (23): MaxPool2d(kernel_size=2, stride=2, padding=0, dilation=1, ceil_mode=False)\n","    (24): Conv2d(512, 512, kernel_size=(3, 3), stride=(1, 1), padding=(1, 1))\n","    (25): ReLU(inplace=True)\n","    (26): Conv2d(512, 512, kernel_size=(3, 3), stride=(1, 1), padding=(1, 1))\n","    (27): ReLU(inplace=True)\n","    (28): Conv2d(512, 512, kernel_size=(3, 3), stride=(1, 1), padding=(1, 1))\n","    (29): ReLU(inplace=True)\n","    (30): MaxPool2d(kernel_size=2, stride=2, padding=0, dilation=1, ceil_mode=False)\n","  )\n","  (avgpool): AdaptiveAvgPool2d(output_size=(7, 7))\n","  (classifier): Sequential(\n","    (0): Linear(in_features=25088, out_features=4096, bias=True)\n","    (1): ReLU(inplace=True)\n","    (2): Dropout(p=0.5, inplace=False)\n","    (3): Linear(in_features=4096, out_features=4096, bias=True)\n","    (4): ReLU(inplace=True)\n","    (5): Dropout(p=0.5, inplace=False)\n","    (6): Linear(in_features=4096, out_features=1000, bias=True)\n","  )\n",")"]},"metadata":{},"execution_count":16}]},{"cell_type":"markdown","source":["##2.Freezing the model"],"metadata":{"id":"S5lTDqdU7kKU"}},{"cell_type":"code","source":["vgg_model.requires_grad_(False)\n","print('VGG16 frozen')"],"metadata":{"colab":{"base_uri":"https://localhost:8080/"},"id":"cu3ZXXCT7xK0","executionInfo":{"status":"ok","t
…
,"source":["N_CLASSES = 1\n","\n","my_model = nn.Sequential(\n","    vgg_model,\n","    nn.Linear(1000, N_CLASSES),\n",")\n","my_model.to(device)\n",""],"metadata":{"colab":{"base_uri":"https://localhost:8080/"},"id":"OQRznWp079tD","executionInfo":{"status":"ok","timestamp":1736412361440,"user_tz":-420,"elapsed":339,"user":{"displayName":"Minh Tùng Bùi","userId":"01387601808454958732"}},"outputId":"d1ee108c-58fe-49b3-a575-d5780bc1a025"},"execution_count":44,"outputs":[{"output_type":"execute_result","data":{"text/plain":["Sequential(\n","  (0): VGG(\n","    (features): Sequential(\n","      (0): Conv2d(3, 64, kernel_size=(3, 3), stride=(1, 1), padding=(1, 1))\n","      (1): ReLU(inplace=True)\n","      (2): Conv2d(64, 64, kernel_size=(3, 3), stride=(1, 1), padding=(1, 1))\n","      (3): ReLU(inplace=True)\n","      (4): MaxPool2d(kernel_size=2, stride=2, padding=0, dilation=1, ceil_mode=False)\n","      (5): Conv2d(64, 128, kernel_size=(3, 3), stride=(1, 1), padding=(1, 1))\n","      (6): ReLU(inplace=True)\n","      (7): Conv2d(128, 128, kernel_size=(3, 3), stride=(1, 1), padding=(1, 1))\n","      (8): ReLU(inplace=True)\n","      (9): MaxPool2d(kernel_size=2, stride=2, padding=0, dilation=1, ceil_mode=False)\n","      (10): Conv2d(128, 256, kernel_size=(3, 3), stride=(1, 1), padding=(1, 1))\n","      (11): ReLU(inplace=True)\n","      (12): Conv2d(256, 256, kernel_size=(3, 3), stride=(1, 1), padding=(1, 1))\n","      (13): ReLU(inplace=True)\n","      (14): Conv2d(256, 256, kernel_size=(3, 3), stride=(1, 1), padding=(1, 1))\n","      (15): ReLU(inplace=True)\n","      (16): MaxPool2d(kernel_size=2, stride=2, padding=0, dilation=1, ceil_mode=False)\n","      (17): Conv2d(256, 512, kernel_size=(3, 3), stride=(1, 1), padding=(1, 1))\n","      (18): ReLU(inplace=True)\n","      (19): Conv2d(512, 512, kernel_size=(3, 3), stride=(1, 1), padding=(1, 1))\n","      (20): ReLU(inplace=True)\n","      (21): Conv2d(512, 512, kernel_size=(3, 3), stride=(1, 1), padding=(1, 1))\n","      (22): ReLU(inplace=True)\n","      (23): MaxPool2d(kernel_size=2, stride=2, padding=0, dilation=1, ceil_mode=False)\n","      (24): Conv2d(512, 512, kernel_size=(3, 3), stride=(1, 1), padding=(1, 1))\n","      (25): ReLU(inplace=True)\n","      (26): Conv2d(512, 512, kernel_size=(3, 3), stride=(1, 1), padding=(1, 1))\n","      (27): ReLU(inplace=True)\n","      (28): Conv2d(512, 512, kernel_size=(3, 3), stride=(1, 1), padding=(1, 1))\n","      (29): ReLU(inplace=True)\n","      (30): MaxPool2d(kernel_size=2, stride=2, padding=0, dilation=1, ceil_mode=False)\n","    )\n","    (avgpool): AdaptiveAvgPool2d(output_size=(7, 7))\n","    (classifier): Sequential(\n","      (0): Linear(in_features=25088, out_features=4096, bias=True)\n","      (1): ReLU(inplace=True)\n","      (2): Dropout(p=0.5, inplace=False)\n","      (3): Linear(in_features=4096, out_features=4096, bias=True)\n","      (4): ReLU(inplace=True)\n","      (5): Dropout(p=0.5, inplace=False)\n","      (6): Linear(in_features=4096, out_features=1000, bias=True)\n","    )\n","  )\n","  (1): Linear(in_features=1000, out_features=1, bias=True)\n",")"]},"metadata":{},"execution_count":44}]},{"cell_type":"code","source":["#If we did want to make the VGG layers trainable, we could take vgg_model and set requires_grad_ to True.\n","vgg_model.requires_grad_(True)\n","print('VGG16 Unfrorzen')\n","for idx, param in enumerate(my_model.parameters()):\n","    print(idx, param.requires_grad)"],"metadata
…
